…
Training in distributed mode with multiple processes, 1 GPU per process. Process 4, total 8.
Training in distributed mode with multiple processes, 1 GPU per process. Process 6, total 8.
Rank 7: Completed store-based barrier for key:store_based_barrier_key:1 with 8 nodes.
Training in distributed mode with multiple processes, 1 GPU per process. Process 7, total 8.
Rank 3: Completed store-based barrier for key:store_based_barrier_key:1 with 8 nodes.
Training in distributed mode with multiple processes, 1 GPU per process. Process 3, total 8.
Topformer(
  (tpm): TokenPyramidModule(
    (stem): Sequential(
      (0): Conv2d_BN(
        (c): Conv2d(3, 16, kernel_size=(3, 3), stride=(2, 2), padding=(1, 1), bias=False)
        (bn): BatchNorm2d(16, eps=1e-05, momentum=0.1, affine=True, track_running_stats=True)
      )
      (1): ReLU()
    )
    (layer1): InvertedResidual(
      (conv): Sequential(
        (0): Conv2d_BN(
          (c): Conv2d(16, 16, kernel_size=(5, 5), stride=(1, 1), padding=(2, 2), groups=16, bias=False)
          (bn): BatchNorm2d(16, eps=1e-05, momentum=0.1, affine=True, track_running_stats=True)
        )
        (1): ReLU()
        (2): Conv2d_BN(
          (c): Conv2d(16, 16, kernel_size=(1, 1), stride=(1, 1), bias=False)
          (bn): BatchNorm2d(16, eps=1e-05, momentum=0.1, affine=True, track_running_stats=True)
        )
      )
    )
    (layer2): InvertedResidual(
      (conv): Sequential(
        (0): Conv2d_BN(
          (c): Conv2d(16, 16, kernel_size=(5, 5), stride=(1, 1), padding=(2, 2), groups=16, bias=False)
          (bn): BatchNorm2d(16, eps=1e-05, momentum=0.1, affine=True, track_running_stats=True)
        )
        (1): ReLU()
        (2): Conv2d_BN(
          (c): Conv2d(16, 16, kernel_size=(1, 1), stride=(1, 1), bias=False)
          (bn): BatchNorm2d(16, eps=1e-05, momentum=0.1, affine=True, track_running_stats=True)
        )
      )
    )
    (layer3): InvertedResidual(
      (conv): Sequential(
        (0): Conv2d_BN(
          (c): Conv2d(16, 48, kernel_size=(1, 1), stride=(1, 1), bias=False)
          (bn): BatchNorm2d(48, eps=1e-05, momentum=0.1, affine=True, track_running_stats=True)
        )
        (1): ReLU()
        (2): Conv2d_BN(
          (c): Conv2d(48, 48, kernel_size=(3, 3), stride=(2, 2), padding=(1, 1), groups=48, bias=False)
          (bn): BatchNorm2d(48, eps=1e-05, momentum=0.1, affine=True, track_running_stats=True)
        )
        (3): ReLU()
        (4): Conv2d_BN(
          (c): Conv2d(48, 16, kernel_size=(1, 1), stride=(1, 1), bias=False)
          (bn): BatchNorm2d(16, eps=1e-05, momentum=0.1, affine=True, track_running_stats=True)
        )
      )
    )
    (layer4): InvertedResidual(
      (conv): Sequential(
        (0): Conv2d_BN(
          (c): Conv2d(16, 48, kernel_size=(1, 1), stride=(1, 1), bias=False)
          (bn): BatchNorm2d(48, eps=1e-05, momentum=0.1, affine=True, track_running_stats=True)
        )
        (1): ReLU()
        (2): Conv2d_BN(
          (c): Conv2d(48, 48, kernel_size=(3, 3), stride=(1, 1), padding=(1, 1), groups=48, bias=False)
          (bn): BatchNorm2d(48, eps=1e-05, momentum=0.1, affine=True, track_running_stats=True)
        )
        (3): ReLU()
        (4): Conv2d_BN(
          (c): Conv2d(48, 16, kernel_size=(1, 1), stride=(1, 1), bias=False)
          (bn): BatchNorm2d(16, eps=1e-05, momentum=0.1, affine=True, track_running_stats=True)
        )
      )
    )
    (layer5): InvertedResidual(
      (conv): Sequential(
        (0): Conv2d_BN(
          (c): Conv2d(16, 48, kernel_size=(1, 1), stride=(1, 1), bias=False)
          (bn): BatchNorm2d(48, eps=1e-05, momentum=0.1, affine=True, track_running_stats=True)
        )
        (1): ReLU()
        (2): Conv2d_BN(
          (c): Conv2d(48, 48, kernel_size=(5, 5), stride=(2, 2), padding=(2, 2), groups=48, bias=False)
          (bn): BatchNorm2d(48, eps=1e-05, momentum=0.1, affine=True, track_running_stats=True)
        )
        (3): ReLU()
        (4): Conv2d_BN(
          (c): Conv2d(48, 48, kernel_size=(1, 1), stride=(1, 1), bias=False)
          (bn): BatchNorm2d(48, eps=1e-05, momentum=0.1, affine=True, track_running_stats=True)
        )
      )
    )
    (layer6): InvertedResidual(
      (conv): Sequential(
        (0): Conv2d_BN(
          (c): Conv2d(48, 96, kernel_size=(1, 1), stride=(1, 1), bias=False)
          (bn): BatchNorm2d(96, eps=1e-05, momentum=0.1, affine=True, track_running_stats=True)
        )
        (1): ReLU()
        (2): Conv2d_BN(
          (c): Conv2d(96, 96, kernel_size=(3, 3), stride=(2, 2), padding=(1, 1), groups=96, bias=False)
          (bn): BatchNorm2d(96, eps=1e-05, momentum=0.1, affine=True, track_running_stats=True)
        )
        (3): ReLU()
        (4): Conv2d_BN(
          (c): Conv2d(96, 96, kernel_size=(1, 1), stride=(1, 1), bias=False)
          (bn): BatchNorm2d(96, eps=1e-05, momentum=0.1, affine=True, track_running_stats=True)
        )
      )
    )
    (layer7): InvertedResidual(
      (conv): Sequential(
        (0): Conv2d_BN(
          (c): Conv2d(96, 192, kernel_size=(1, 1), stride=(1, 1), bias=False)
          (bn): BatchNorm2d(192, eps=1e-05, momentum=0.1, affine=True, track_running_stats=True)
        )
        (1): ReLU()
        (2): Conv2d_BN(
          (c): Conv2d(192, 192, kernel_size=(3, 3), stride=(1, 1), padding=(1, 1), groups=192, bias=False)
          (bn): BatchNorm2d(192, eps=1e-05, momentum=0.1, affine=True, track_running_stats=True)
        )
        (3): ReLU()
        (4): Conv2d_BN(
          (c): Conv2d(192, 96, kernel_size=(1, 1), stride=(1, 1), bias=False)
          (bn): BatchNorm2d(96, eps=1e-05, momentum=0.1, affine=True, track_running_stats=True)
        )
      )
    )
    (layer8): InvertedResidual(
      (conv): Sequential(
        (0): Conv2d_BN(
          (c): Conv2d(96, 192, kernel_size=(1, 1), stride=(1, 1), bias=False)
          (bn): BatchNorm2d(192, eps=1e-05, momentum=0.1, affine=True, track_running_stats=True)
        )
        (1): ReLU()
        (2): Conv2d_BN(
          (c): Conv2d(192, 192, kernel_size=(3, 3), stride=(1, 1), padding=(1, 1), groups=192, bias=False)
          (bn): BatchNorm2d(192, eps=1e-05, momentum=0.1, affine=True, track_running_stats=True)
        )
        (3): ReLU()
        (4): Conv2d_BN(
          (c): Conv2d(192, 96, kernel_size=(1, 1), stride=(1, 1), bias=False)
          (bn): BatchNorm2d(96, eps=1e-05, momentum=0.1, affine=True, track_running_stats=True)
        )
      )
    )
    (layer9): InvertedResidual(
      (conv): Sequential(
        (0): Conv2d_BN(
          (c): Conv2d(96, 576, kernel_size=(1, 1), stride=(1, 1), bias=False)
          (bn): BatchNorm2d(576, eps=1e-05, momentum=0.1, affine=True, track_running_stats=True)
        )
        (1): ReLU()
        (2): Conv2d_BN(
          (c): Conv2d(576, 576, kernel_size=(3, 3), stride=(2, 2), padding=(1, 1), groups=576, bias=False)
          (bn): BatchNorm2d(576, eps=1e-05, momentum=0.1, affine=True, track_running_stats=True)
        )
        (3): ReLU()
        (4): Conv2d_BN(
          (c): Conv2d(576, 136, kernel_size=(1, 1), stride=(1, 1), bias=False)
          (bn): BatchNorm2d(136, eps=1e-05, momentum=0.1, affine=True, track_running_stats=True)
        )
      )
    )
    (layer10): InvertedResidual(
      (conv): Sequential(
        (0): Conv2d_BN(
          (c): Conv2d(136, 816, kernel_size=(1, 1), stride=(1, 1), bias=False)
          (bn): BatchNorm2d(816, eps=1e-05, momentum=0.1, affine=True, track_running_stats=True)
        )
        (1): ReLU()
        (2): Conv2d_BN(
          (c): Conv2d(816, 816, kernel_size=(3, 3), stride=(1, 1), padding=(1, 1), groups=816, bias=False)
          (bn): BatchNorm2d(816, eps=1e-05, momentum=0.1, affine=True, track_running_stats=True)
        )
        (3): ReLU()
        (4): Conv2d_BN(
          (c): Conv2d(816, 136, kernel_size=(1, 1), stride=(1, 1), bias=False)
          (bn): BatchNorm2d(136, eps=1e-05, momentum=0.1, affine=True, track_running_stats=True)
        )
      )
    )
    (layer11): InvertedResidual(
      (conv): Sequential(
        (0): Conv2d_BN(
          (c): Conv2d(136, 816, kernel_size=(1, 1), stride=(1, 1), bias=False)
          (bn): BatchNorm2d(816, eps=1e-05, momentum=0.1, affine=True, track_running_stats=True)
        )
        (1): ReLU()
        (2): Conv2d_BN(
          (c): Conv2d(816, 816, kernel_size=(3, 3), stride=(1, 1), padding=(1, 1), groups=816, bias=False)
          (bn): BatchNorm2d(816, eps=1e-05, momentum=0.1, affine=True, track_running_stats=True)
        )
        (3): ReLU()
        (4): Conv2d_BN(
          (c): Conv2d(816, 136, kernel_size=(1, 1), stride=(1, 1), bias=False)
          (bn): BatchNorm2d(136, eps=1e-05, momentum=0.1, affine=True, track_running_stats=True)
        )
      )
    )
    (layer12): InvertedResidual(
      (conv): Sequential(
        (0): Conv2d_BN(
          (c): Conv2d(136, 816, kernel_size=(1, 1), stride=(1, 1), bias=False)
          (bn): BatchNorm2d(816, eps=1e-05, momentum=0.1, affine=True, track_running_stats=True)
        )
        (1): ReLU()
        (2): Conv2d_BN(
          (c): Conv2d(816, 816, kernel_size=(3, 3), stride=(1, 1), padding=(1, 1), groups=816, bias=False)
          (bn): BatchNorm2d(816, eps=1e-05, momentum=0.1, affine=True, track_running_stats=True)
        )
        (3): ReLU()
        (4): Conv2d_BN(
          (c): Conv2d(816, 136, kernel_size=(1, 1), stride=(1, 1), bias=False)
          (bn): BatchNorm2d(136, eps=1e-05, momentum=0.1, affine=True, track_running_stats=True)
        )
      )
    )
  )
  (ppa): PyramidPoolAgg()
  (trans): BasicLayer(
    (transformer_blocks): ModuleList(
      (0): Block(
        (attn): Attention(
          (to_q): Conv2d_BN(
            (c): Conv2d(296, 96, kernel_size=(1, 1), stride=(1, 1), bias=False)
            (bn): BatchNorm2d(96, eps=1e-05, momentum=0.1, affine=True, track_running_stats=True)
          )
          (to_k): Conv2d_BN(
            (c): Conv2d(296, 96, kernel_size=(1, 1), stride=(1, 1), bias=False)
            (bn): BatchNorm2d(96, eps=1e-05, momentum=0.1, affine=True, track_running_stats=True)
          )
          (to_v): Conv2d_BN(
            (c): Conv2d(296, 150, kernel_size=(1, 1), stride=(1, 1), bias=False)
            (bn): BatchNorm2d(150, eps=1e-05, momentum=0.1, affine=True, track_running_stats=True)
          )
          (proj): Sequential(
            (0): ReLU6()
            (1): Conv2d_BN(
              (c): Conv2d(150, 296, kernel_size=(1, 1), stride=(1, 1), bias=False)
              (bn): BatchNorm2d(296, eps=1e-05, momentum=0.1, affine=True, track_running_stats=True)
            )
          )
        )
        (drop_path): Identity()
        (mlp): Mlp(
          (fc1): Conv2d_BN(
            (c): Conv2d(296, 651, kernel_size=(1, 1), stride=(1, 1), bias=False)
            (bn): BatchNorm2d(651, eps=1e-05, momentum=0.1, affine=True, track_running_stats=True)
          )
          (dwconv): Conv2d(651, 651, kernel_size=(3, 3), stride=(1, 1), padding=(1, 1), groups=651)
          (act): ReLU6()
          (fc2): Conv2d_BN(
            (c): Conv2d(651, 296, kernel_size=(1, 1), stride=(1, 1), bias=False)
            (bn): BatchNorm2d(296, eps=1e-05, momentum=0.1, affine=True, track_running_stats=True)
          )
          (drop): Dropout(p=0, inplace=False)
        )
      )
      (1): Block(
        (attn): Attention(
          (to_q): Conv2d_BN(
            (c): Conv2d(296, 96, kernel_size=(1, 1), stride=(1, 1), bias=False)
            (bn): BatchNorm2d(96, eps=1e-05, momentum=0.1, affine=True, track_running_stats=True)
          )
          (to_k): Conv2d_BN(
            (c): Conv2d(296, 96, kernel_size=(1, 1), stride=(1, 1), bias=False)
            (bn): BatchNorm2d(96, eps=1e-05, momentum=0.1, affine=True, track_running_stats=True)
          )
          (to_v): Conv2d_BN(
            (c): Conv2d(296, 150, kernel_size=(1, 1), stride=(1, 1), bias=False)
            (bn): BatchNorm2d(150, eps=1e-05, momentum=0.1, affine=True, track_running_stats=True)
          )
          (proj): Sequential(
            (0): ReLU6()
            (1): Conv2d_BN(
              (c): Conv2d(150, 296, kernel_size=(1, 1), stride=(1, 1), bias=False)
              (bn): BatchNorm2d(296, eps=1e-05, momentum=0.1, affine=True, track_running_stats=True)
            )
          )
        )
        (drop_path): DropPath()
        (mlp): Mlp(
          (fc1): Conv2d_BN(
            (c): Conv2d(296, 651, kernel_size=(1, 1), stride=(1, 1), bias=False)
            (bn): BatchNorm2d(651, eps=1e-05, momentum=0.1, affine=True, track_running_stats=True)
          )
          (dwconv): Conv2d(651, 651, kernel_size=(3, 3), stride=(1, 1), padding=(1, 1), groups=651)
          (act): ReLU6()
          (fc2): Conv2d_BN(
            (c): Conv2d(651, 296, kernel_size=(1, 1), stride=(1, 1), bias=False)
            (bn): BatchNorm2d(296, eps=1e-05, momentum=0.1, affine=True, track_running_stats=True)
          )
          (drop): Dropout(p=0, inplace=False)
        )
      )
      (2): Block(
        (attn): Attention(
          (to_q): Conv2d_BN(
            (c): Conv2d(296, 56, kernel_size=(1, 1), stride=(1, 1), bias=False)
            (bn): BatchNorm2d(56, eps=1e-05, momentum=0.1, affine=True, track_running_stats=True)
          )
          (to_k): Conv2d_BN(
            (c): Conv2d(296, 56, kernel_size=(1, 1), stride=(1, 1), bias=False)
            (bn): BatchNorm2d(56, eps=1e-05, momentum=0.1, affine=True, track_running_stats=True)
          )
          (to_v): Conv2d_BN(
            (c): Conv2d(296, 100, kernel_size=(1, 1), stride=(1, 1), bias=False)
            (bn): BatchNorm2d(100, eps=1e-05, momentum=0.1, affine=True, track_running_stats=True)
          )
          (proj): Sequential(
            (0): ReLU6()
            (1): Conv2d_BN(
              (c): Conv2d(100, 296, kernel_size=(1, 1), stride=(1, 1), bias=False)
              (bn): BatchNorm2d(296, eps=1e-05, momentum=0.1, affine=True, track_running_stats=True)
            )
          )
        )
        (drop_path): DropPath()
        (mlp): Mlp(
          (fc1): Conv2d_BN(
            (c): Conv2d(296, 532, kernel_size=(1, 1), stride=(1, 1), bias=False)
            (bn): BatchNorm2d(532, eps=1e-05, momentum=0.1, affine=True, track_running_stats=True)
          )
          (dwconv): Conv2d(532, 532, kernel_size=(3, 3), stride=(1, 1), padding=(1, 1), groups=532)
          (act): ReLU6()
          (fc2): Conv2d_BN(
            (c): Conv2d(532, 296, kernel_size=(1, 1), stride=(1, 1), bias=False)
            (bn): BatchNorm2d(296, eps=1e-05, momentum=0.1, affine=True, track_running_stats=True)
          )
          (drop): Dropout(p=0, inplace=False)
        )
      )
      (3): Block(
        (attn): Attention(
          (to_q): Conv2d_BN(
            (c): Conv2d(296, 64, kernel_size=(1, 1), stride=(1, 1), bias=False)
            (bn): BatchNorm2d(64, eps=1e-05, momentum=0.1, affine=True, track_running_stats=True)
          )
          (to_k): Conv2d_BN(
            (c): Conv2d(296, 64, kernel_size=(1, 1), stride=(1, 1), bias=False)
            (bn): BatchNorm2d(64, eps=1e-05, momentum=0.1, affine=True, track_running_stats=True)
          )
          (to_v): Conv2d_BN(
            (c): Conv2d(296, 112, kernel_size=(1, 1), stride=(1, 1), bias=False)
            (bn): BatchNorm2d(112, eps=1e-05, momentum=0.1, affine=True, track_running_stats=True)
          )
          (proj): Sequential(
            (0): ReLU6()
            (1): Conv2d_BN(
              (c): Conv2d(112, 296, kernel_size=(1, 1), stride=(1, 1), bias=False)
              (bn): BatchNorm2d(296, eps=1e-05, momentum=0.1, affine=True, track_running_stats=True)
            )
          )
        )
        (drop_path): DropPath()
        (mlp): Mlp(
          (fc1): Conv2d_BN(
            (c): Conv2d(296, 592, kernel_size=(1, 1), stride=(1, 1), bias=False)
            (bn): BatchNorm2d(592, eps=1e-05, momentum=0.1, affine=True, track_running_stats=True)
          )
          (dwconv): Conv2d(592, 592, kernel_size=(3, 3), stride=(1, 1), padding=(1, 1), groups=592)
          (act): ReLU6()
          (fc2): Conv2d_BN(
            (c): Conv2d(592, 296, kernel_size=(1, 1), stride=(1, 1), bias=False)
            (bn): BatchNorm2d(296, eps=1e-05, momentum=0.1, affine=True, track_running_stats=True)
          )
          (drop): Dropout(p=0, inplace=False)
        )
      )
      (4): Block(
        (attn): Attention(
          (to_q): Conv2d_BN(
            (c): Conv2d(296, 64, kernel_size=(1, 1), stride=(1, 1), bias=False)
            (bn): BatchNorm2d(64, eps=1e-05, momentum=0.1, affine=True, track_running_stats=True)
          )
          (to_k): Conv2d_BN(
            (c): Conv2d(296, 64, kernel_size=(1, 1), stride=(1, 1), bias=False)
            (bn): BatchNorm2d(64, eps=1e-05, momentum=0.1, affine=True, track_running_stats=True)
          )
          (to_v): Conv2d_BN(
            (c): Conv2d(296, 112, kernel_size=(1, 1), stride=(1, 1), bias=False)
            (bn): BatchNorm2d(112, eps=1e-05, momentum=0.1, affine=True, track_running_stats=True)
          )
          (proj): Sequential(
            (0): ReLU6()
            (1): Conv2d_BN(
              (c): Conv2d(112, 296, kernel_size=(1, 1), stride=(1, 1), bias=False)
              (bn): BatchNorm2d(296, eps=1e-05, momentum=0.1, affine=True, track_running_stats=True)
            )
          )
        )
        (drop_path): DropPath()
        (mlp): Mlp(
          (fc1): Conv2d_BN(
            (c): Conv2d(296, 592, kernel_size=(1, 1), stride=(1, 1), bias=False)
            (bn): BatchNorm2d(592, eps=1e-05, momentum=0.1, affine=True, track_running_stats=True)
          )
          (dwconv): Conv2d(592, 592, kernel_size=(3, 3), stride=(1, 1), padding=(1, 1), groups=592)
          (act): ReLU6()
          (fc2): Conv2d_BN(
            (c): Conv2d(592, 296, kernel_size=(1, 1), stride=(1, 1), bias=False)
            (bn): BatchNorm2d(296, eps=1e-05, momentum=0.1, affine=True, track_running_stats=True)
          )
          (drop): Dropout(p=0, inplace=False)
        )
      )
      (5): Block(
        (attn): Attention(
          (to_q): Conv2d_BN(
            (c): Conv2d(296, 112, kernel_size=(1, 1), stride=(1, 1), bias=False)
            (bn): BatchNorm2d(112, eps=1e-05, momentum=0.1, affine=True, track_running_stats=True)
          )
          (to_k): Conv2d_BN(
            (c): Conv2d(296, 112, kernel_size=(1, 1), stride=(1, 1), bias=False)
            (bn): BatchNorm2d(112, eps=1e-05, momentum=0.1, affine=True, track_running_stats=True)
          )
          (to_v): Conv2d_BN(
            (c): Conv2d(296, 200, kernel_size=(1, 1), stride=(1, 1), bias=False)
            (bn): BatchNorm2d(200, eps=1e-05, momentum=0.1, affine=True, track_running_stats=True)
          )
          (proj): Sequential(
            (0): ReLU6()
            (1): Conv2d_BN(
              (c): Conv2d(200, 296, kernel_size=(1, 1), stride=(1, 1), bias=False)
              (bn): BatchNorm2d(296, eps=1e-05, momentum=0.1, affine=True, track_running_stats=True)
            )
          )
        )
        (drop_path): DropPath()
        (mlp): Mlp(
          (fc1): Conv2d_BN(
            (c): Conv2d(296, 532, kernel_size=(1, 1), stride=(1, 1), bias=False)
            (bn): BatchNorm2d(532, eps=1e-05, momentum=0.1, affine=True, track_running_stats=True)
          )
          (dwconv): Conv2d(532, 532, kernel_size=(3, 3), stride=(1, 1), padding=(1, 1), groups=532)
          (act): ReLU6()
          (fc2): Conv2d_BN(
            (c): Conv2d(532, 296, kernel_size=(1, 1), stride=(1, 1), bias=False)
            (bn): BatchNorm2d(296, eps=1e-05, momentum=0.1, affine=True, track_running_stats=True)
          )
          (drop): Dropout(p=0, inplace=False)
        )
      )
      (6): Block(
        (attn): Attention(
          (to_q): Conv2d_BN(
            (c): Conv2d(296, 112, kernel_size=(1, 1), stride=(1, 1), bias=False)
            (bn): BatchNorm2d(112, eps=1e-05, momentum=0.1, affine=True, track_running_stats=True)
          )
          (to_k): Conv2d_BN(
            (c): Conv2d(296, 112, kernel_size=(1, 1), stride=(1, 1), bias=False)
            (bn): BatchNorm2d(112, eps=1e-05, momentum=0.1, affine=True, track_running_stats=True)
          )
          (to_v): Conv2d_BN(
            (c): Conv2d(296, 200, kernel_size=(1, 1), stride=(1, 1), bias=False)
            (bn): BatchNorm2d(200, eps=1e-05, momentum=0.1, affine=True, track_running_stats=True)
          )
          (proj): Sequential(
            (0): ReLU6()
            (1): Conv2d_BN(
              (c): Conv2d(200, 296, kernel_size=(1, 1), stride=(1, 1), bias=False)
              (bn): BatchNorm2d(296, eps=1e-05, momentum=0.1, affine=True, track_running_stats=True)
            )
          )
        )
        (drop_path): DropPath()
        (mlp): Mlp(
          (fc1): Conv2d_BN(
            (c): Conv2d(296, 532, kernel_size=(1, 1), stride=(1, 1), bias=False)
            (bn): BatchNorm2d(532, eps=1e-05, momentum=0.1, affine=True, track_running_stats=True)
          )
          (dwconv): Conv2d(532, 532, kernel_size=(3, 3), stride=(1, 1), padding=(1, 1), groups=532)
          (act): ReLU6()
          (fc2): Conv2d_BN(
            (c): Conv2d(532, 296, kernel_size=(1, 1), stride=(1, 1), bias=False)
            (bn): BatchNorm2d(296, eps=1e-05, momentum=0.1, affine=True, track_running_stats=True)
          )
          (drop): Dropout(p=0, inplace=False)
        )
      )
    )
  )
  (SIM): ModuleList()
  (avg_pool): AdaptiveAvgPool2d(output_size=1)
  (head): Sequential(
    (bn): BatchNorm1d(296, eps=1e-05, momentum=0.1, affine=True, track_running_stats=True)
    (l): Linear(in_features=296, out_features=1000, bias=True)
  )
)
Model topformer_zhanglei_small created, param count:4682368
Data processing configuration for current model + dataset:
	input_size: (3, 224, 224)
	interpolation: bilinear
	mean: (0.485, 0.456, 0.406)
	std: (0.229, 0.224, 0.225)
	crop_pct: 0.875
Using native Torch AMP. Training in mixed precision.
Using native Torch DistributedDataParallel.
n147-178-049:1408055:1408055 [0] NCCL INFO Bootstrap : Using eth0:10.147.178.49<0>
…
